…
(input, x) model.compile(loss='mae',                optimizer=tf.keras.optimizers.Adam(learning_rate=0.001),               weighted_metrics=[]) In\u00a0[21]: Copied! <pre>model.summary()\n</pre> model.summary() <pre>Model: \"model_1\"\n_________________________________________________________________\n Layer (type)                Output Shape              Param #   \n=================================================================\n input_2 (InputLayer)        [(None, 32, 14)]          0         \n                                                                 \n conv1d_3 (Conv1D)           (None, 32, 64)            2752      \n                                                                 \n conv1d_4 (Conv1D)           (None, 32, 64)            12352     \n                                                                 \n conv1d_5 (Conv1D)           (None, 32, 64)            12352     \n                                                                 \n global_max_pooling1d_1 (Glo  (None, 64)               0         \n balMaxPooling1D)                                                \n                                                                 \n dense_2 (Dense)             (None, 64)                4160      \n                                                                 \n dense_3 (Dense)             (None, 1)                 65        \n                                                                 \n=================================================================\nTotal params: 31,681\nTrainable params: 31,681\nNon-trainable params: 0\n_________________________________________________________________\n</pre> <p>Before calling fit the iterators are converted to tf.Dataset instances with <code>tf_regression_dataset</c
…
ummary() model.compile(loss='mae',                optimizer=tf.keras.optimizers.Adam(learning_rate=0.0001),               weighted_metrics=[]) model.fit(tf_regression_dataset(train_iterator).batch(32),          validation_data=tf_regression_dataset(val_iterator).batch(32),          epochs=25,          callbacks=[EarlyStopping(patience=5)]) <pre>Model: \"sequential\"\n_________________________________________________________________\n Layer (type)                Output Shape              Param #   \n=================================================================\n conv1d_6 (Conv1D)           (None, 32, 64)            1856      \n                                                                 \n max_pooling1d (MaxPooling1D  (None, 16, 64)           0         \n )                                                               \n                                                                 \n conv1d_7 (Conv1D)           (None, 16, 128)           16512     \n                                                                 \n max_pooling1d_1 (MaxPooling  (None, 8, 128)           0         \n 1D)                                                             \n                                                                 \n conv1d_8 (Conv1D)           (None, 8, 256)            65792     \n                                                                 \n max_pooling1d_2 (MaxPooling  (None, 4, 256)           0         \n 1D)                                                             \n                                                                 \n flatten (Flatten)           (None, 1024)              0         \n                                                                 \n dense_4 (Dense)             (None, 150)               153750    \n                                                                 \n dropout (Dropout)           (None, 150)               0         \n                                                                 \n reshape (Reshape)           (None, 10, 15)            0         \n                                                                 \n lstm (LSTM)                 (None, 10, 32)            6144      \n                                                                 \n lstm_1 (LSTM)               (None, 32)                8320      \n                                                                 \n dropout_1 (Dropout)         (None, 32)                0         \n                                                                 \n flatten_1 (Flatten)         (None, 32)                0         \n                                                                 \n dense_5 (Dense)             (None, 25)                825       \n                                                                 \n dropout_2 (Dropout)         (None, 25)                0         \n                                                                 \n dense_6 (Dense)             (None, 1)                 26        \n                                                                 \n=================================================================\nTotal params: 253,225\nTrainable params: 253,225\nNon-trainable params: 0\n_________________________________________________________________\nEpoch 1/25\n497/497 [==============================] - 9s 15ms/step - loss: 87.4043 - val_loss: 74.3738\nEpoch 2/2
…
